my_model.onnx (onnx, 2741 bytes, 6 tensors)

functional_5_1/output_1/Cast/ReadVariableOp:0 f4 [5, 2]
0	0x4015887f	2.336456
1	0xc023ed4a	-2.561358
2	0xbf178b69	-0.591971
3	0xbecab3cc	-0.395903
4	0x3ff4bf7a	1.9120934
5	0xbffe0c31	-1.984747
6	0x3fba4c76	1.4554584
7	0x40159935	2.337476
8	0xbf8ad75f	-1.0846976
9	0x408620df	4.1915126

functional_5_1/output_1/BiasAdd/ReadVariableOp:0 f4 [2]
0	0x3f60bbf2	0.8778678
1	0x3e00acdc	0.1256594

functional_5_1/dense_4_1/Cast/ReadVariableOp:0 f4 [10, 5]
0	0x88150315	-4.484168e-34
1	0x8788db23	-2.0591803e-34
2	0x0709a65a	1.0355621e-34
3	0x84112100	-1.7059821e-36
4	0x0753af1a	1.5925333e-34
5	0xbd2f31d1	-0.042772118
6	0x8637e576	-3.4587056e-35
7	0xbd597586	-0.053090595
8	0xbcbca1c0	-0.023026347
9	0x3d8b7ac0	0.06810522
10	0xbcc9bbe5	-0.024625728
11	0x87e1b610	-3.3961244e-34
12	0xbcbc8be8	-0.023015931
13	0x3dadb444	0.084816486
14	0x3d6dd742	0.058066614
15	0xbd0878c7	-0.033318307
16	0x080ed11d	4.297738e-34
17	0xbd08ae4e	-0.033369355
18	0x3d7f7483	0.062366974
19	0x3d80f096	0.06295888
20	0xbd16277a	-0.03665874
21	0x080968a1	4.134993e-34
22	0xbd08ef19	-0.033431146
23	0x3d10a333	0.03531189
24	0x3d94e7ea	0.072707966
25	0x07418f3e	1.4561801e-34
26	0x869dbd86	-5.9335316e-35
27	0x0739498b	1.3939465e-34
28	0x0816cf51	4.5382682e-34
29	0x06ab7439	6.4493825e-35
30	0x883c5081	-5.6668824e-34
31	0x08040de7	3.9738647e-34
32	0x07e33ce9	3.4190964e-34
33	0x079f31b0	2.3952865e-34
34	0x08120e34	4.3951973e-34
35	0xbd68d3d6	-0.056842647
36	0x87149d2b	-1.118047e-34
37	0xbd737fe8	-0.059448153
38	0xbd76a652	-0.06021721
39	0x3ccb0459	0.024782347
40	0xbc965b86	-0.018354189
41	0x86731658	-4.5719636e-35
42	0xbc536e78	-0.012904756
43	0x3db165de	0.08662008
44	0x3d480aa0	0.048838258
45	0xbce9d249	-0.028542655
46	0x8723fa11	-1.2336245e-34
47	0xbcff7fc6	-0.031188857
48	0x3da55a73	0.080738924
49	0x3d86d27c	0.065831155

functional_5_1/dense_4_1/BiasAdd/ReadVariableOp:0 f4 [5]
0	0x3c98aa70	0.018635958
1	0xbdb3f4fa	-0.0878696
2	0x3cacef6a	0.021110255
3	0x3b8d28d5	0.004307846
4	0xbac302d4	-0.0014878162

functional_5_1/dense_3_1/Cast/ReadVariableOp:0 f4 [20, 10]
0	0x8813a068	-4.442476e-34
1	0xbc8e5879	-0.017376171
2	0x3c73b62e	0.014874978
3	0x3b6c59fc	0.0036064377
4	0xbbb4975d	-0.005511208
5	0x0788aea8	2.056566e-34
6	0x07b20da4	2.679048e-34
7	0xbd0d5219	-0.034502123
8	0x3c68e9be	0.014215885
9	0x3bf6593a	0.007517961
10	0x08004559	3.8600117e-34
11	0xbc8e5877	-0.017376168
12	0x3c73b5a9	0.014874854
13	0x3b6c59fb	0.0036064375
14	0xbbb4975a	-0.0055112066
15	0x87527e0a	-1.5835684e-34
16	0x07d33790	3.1780408e-34
17	0xbd0d521c	-0.034502134
18	0x3c68e9bb	0.014215882
19	0x3bf65973	0.0075179874
20	0x0764b600	1.7206299e-34
21	0xbc8e5877	-0.017376168
22	0x3c73b52e	0.01487474
23	0x3b6c59f0	0.003606435
24	0xbbb49755	-0.0055112042
25	0x8763596f	-1.7103864e-34
26	0x88022e4c	-3.9174874e-34
27	0xbd0d5222	-0.034502156
28	0x3c68e9b6	0.014215877
29	0x3bf65976	0.007517989
30	0x083f4201	5.755456e-34
31	0xbc8e5878	-0.01737617
32	0x3c73b5e5	0.01487491
33	0x3b6c59fd	0.003606438
34	0xbbb4975b	-0.005511207
35	0x8783978c	-1.979976e-34
36	0x881906b0	-4.6049624e-34
37	0xbd0d5227	-0.034502175
38	0x3c68e9bc	0.014215883
39	0x3bf65975	0.0075179883
40	0x86ad2c2c	-6.514027e-35
41	0xbc8e5878	-0.01737617
42	0x3c73b521	0.014874727
43	0x3b6c59f3	0.0036064356
44	0xbbb4975b	-0.005511207
45	0x0776a425	1.8555221e-34
46	0x083a06e0	5.598042e-34
47	0xbd0d5226	-0.03450217
48	0x3c68e9bd	0.014215884
49	0x3bf65977	0.0075179893
50	0x0837a15a	5.5259227e-34
51	0xbc822db7	-0.01589094
52	0xbcdf773a	-0.027278531
53	0xbcbfcad0	-0.023412138
54	0xbc97e23c	-0.018540494
55	0x877203c4	-1.8207163e-34
56	0x88326f9e	-5.369613e-34
57	0xbc36831b	-0.011139656
58	0xbcb4d21d	-0.022072846
59	0xbcea13a8	-0.028573826
60	0x07fa9ce8	3.770804e-34
61	0xbc822db6	-0.015890937
62	0xbcdf7742	-0.027278546
63	0xbcbfcad8	-0.023412153
64	0xbc97e23a	-0.01854049
65	0x0689cedd	5.183763e-35
66	0x08028d2e	3.928641e-34
67	0xbc36831a	-0.0111396555
68	0xbcb4d244	-0.022072919
69	0xbcea13ac	-0.028573833
70	0x04d1bec0	4.931084e-36
71	0xbc822db8	-0.015890941
72	0xbcdf7747	-0.027278556
73	0xbcbfcad8	-0.023412153
74	0xbc97e239	-0.018540489
75	0x87be11da	-2.8598515e-34
76	0x07dca870	3.320092e-34
77	0xbc368318	-0.011139654
78	0xbcb4d225	-0.022072861
79	0xbcea13a7	-0.028573824
80	0x06d3ae34	7.9625347e-35
81	0xbc822db7	-0.01589094
82	0xbcdf773a	-0.027278531
83	0xbcbfcad8	-0.023412153
84	0xbc97e23b	-0.018540492
85	0x862e9c16	-3.2840437e-35
86	0x8827a996	-5.045408e-34
87	0xbc36831b	-0.011139656
88	0xbcb4d21a	-0.02207284
89	0xbcea13a8	-0.028573826
90	0x871b0a5b	-1.1663947e-34
91	0xbc822db5	-0.015890935
92	0xbcdf773c	-0.027278535
93	0xbcbfcad7	-0.023412151
94	0xbc97e23e	-0.018540498
95	0x854f18f6	-9.737678e-36
96	0x082530a0	4.971004e-34
97	0xbc36831a	-0.0111396555
98	0xbcb4d241	-0.022072913
99	0xbcea13aa	-0.02857383
100	0x87971964	-2.2734878e-34
101	0xbccb43d5	-0.024812618
102	0x3bf4aa24	0.0074665714
103	0x3acd981f	0.0015685594
104	0xbc0b7c9a	-0.008513594
105	0x07a4a47c	2.4772653e-34
106	0x880b3326	-4.1888916e-34
107	0xbd108366	-0.03528156
108	0x3c541290	0.012943879
109	0x3adaffa5	0.0016708268
110	0x878397ef	-1.9799988e-34
111	0xbcd70d98	-0.0262516
112	0x3bf08b0d	0.007340795
113	0x3a846236	0.001010007
114	0xbc1908b7	-0.009340457
115	0x07dcfec9	3.325167e-34
116	0x07e01bf0	3.3720194e-34
117	0xbd158dc5	-0.036512155
118	0x3c54bcd7	0.012984476
119	0x3aaab933	0.0013025164
120	0x88029bd4	-3.9303627e-34
121	0xbce3184c	-0.027721547
122	0x3be7b41b	0.007071031
123	0x39b17612	0.0003384804
124	0xbc27941d	-0.010228184
125	0x87b6e85c	-2.7520885e-34
126	0x87992ddf	-2.3047842e-34
127	0xbd1a1ea9	-0.037626896
128	0x3c527aef	0.012846692
129	0x3a4d661c	0.0007835345
130	0x880ec619	-4.2964433e-34
131	0xbcee78ce	-0.029110339
132	0x3bdb8267	0.006698895
133	0xb9b27b6e	-0.00034042768
134	0xbc36132f	-0.011112972
135	0x07bc2b69	2.831261e-34
136	0x07a6f591	2.5121235e-34
137	0xbd1dfd69	-0.03857175
138	0x3c4e009f	0.01257339
139	0x391e2f06	0.00015085572
140	0x87885a5a	-2.051611e-34
141	0xbcf98d64	-0.030462928
142	0x3bd27384	0.006422462
143	0xba724bf4	-0.0009242885
144	0xbc4399c8	-0.01193852
145	0x87c82fe4	-3.0120803e-34
146	0x07b5481f	2.7276242e-34
147	0xbd2220f2	-0.0395822
148	0x3c4b5f0b	0.012412797
149	0xb9c2ad65	-0.00037131752
150	0x074e1317	1.5503328e-34
151	0x3cb45e7e	0.022017714
152	0x3d01da03	0.031702053
153	0x3d0a120b	0.033708613
154	0x3ce873a3	0.028375452
155	0x07f9eca6	3.7604445e-34
156	0x85875ff9	-1.2730594e-35
157	0x3af04272	0.0018330349
158	0x3cef1e4c	0.029189251
159	0x3d081c05	0.033229847
160	0x0610e664	2.7252654e-35
161	0x3cc97b00	0.024594784
162	0x3d126381	0.035739426
163	0x3d1a5954	0.037682846
164	0x3d043cba	0.032284476
165	0x880d244f	-4.2473325e-34
166	0x05e0c85c	2.1138459e-35
167	0x3acd2f6c	0.0015654392
168	0x3d063f00	0.032774925
169	0x3d18a60d	0.037267733
170	0x081bc457	4.687441e-34
171	0x3cde4ea3	0.027137106
172	0x3d21ce60	0.039503455
173	0x3d298321	0.04138482
174	0x3d13897a	0.03601978
175	0x07f50111	3.686413e-34
176	0x881d5a44	-4.7351576e-34
177	0x3ab4c915	0.0013792837
178	0x3d140b41	0.036143545
179	0x3d27bd39	0.04095194
180	0x87f50a88	-3.6869693e-34
181	0x3cf1b33c	0.02950441
182	0x3d2f8c18	0.042858213
183	0x3d373e92	0.044737406
184	0x3d2179a0	0.03942263
185	0x07077c82	1.0192861e-34
186	0x8822be58	-4.897385e-34
187	0x3aa184d5	0.0012322912
188	0x3d20720e	0.03917127
189	0x3d35a212	0.044344015
190	0x07ae3e32	2.6217165e-34
191	0x3d05648b	0.03256659
192	0x3d415f5f	0.047210094
193	0x3d48f64a	0.049063005
194	0x3d331d79	0.04372928
195	0x8761b797	-1.6981071e-34
196	0x07fdecd4	3.8206404e-34
197	0x3a9542f2	0.0011387749
198	0x3d3097ba	0.043113448
199	0x3d4853dc	0.0489081

functional_5_1/dense_3_1/BiasAdd/ReadVariableOp:0 f4 [10]
0	0xbbaedc43	-0.005336316
1	0x3e5b1342	0.21394065
2	0x3bcab3db	0.006185991
3	0x3d4f90ff	0.05067539
4	0x3dc91088	0.09817606
5	0xbdde116f	-0.10843169
6	0x9323f5f4	-2.0694757e-27
7	0x3e8d20ae	0.27563995
8	0xbd02455a	-0.03180442
9	0x3ccd090f	0.025028734
