Tonly.onnx (onnx, 2173 bytes, 5 tensors)

functional_2_1/output_1/Cast/ReadVariableOp:0 f4 [4, 1]
000000 4e 29 56 40 17 8d c3 bf 44 b6 43 bf 5a 6d 2b c0
       3.346271 -1.5277432 -0.7644999 -2.6785493

functional_2_1/dense_5_1/Cast/ReadVariableOp:0 f4 [8, 4]
000000 d3 9b a1 bd d3 45 bf 3c 36 7a d7 3c 97 d2 94 3c
       -0.07891049 0.023348724 0.026303392 0.018166823
000010 e7 1b 21 ba 58 28 b0 39 4e 9e a9 39 5c 68 ed b9
       -0.00061458204 0.00033599394 0.00032352138 -0.00045281916
000020 d6 e5 a6 bd 46 f3 94 3c 17 e4 9f 3c 01 48 01 3c
       -0.081493065 0.018182408 0.019517941 0.007890702
000030 3e 54 1d 3e aa ea 83 bd 59 f4 3f bd 81 dc bd bd
       0.15364167 -0.06441243 -0.046863887 -0.092705734
000040 e7 e2 0b 3e 7d be 85 bd 51 7c 3c bd a0 5b b4 bd
       0.13660775 -0.065304734 -0.046016995 -0.088065386
000050 1c b2 a5 bd f7 ac a6 3c d7 50 a2 3c f1 03 43 3c
       -0.08090612 0.020346148 0.019813938 0.011902795
000060 00 ee a8 bd 7f 09 5e 3c d8 cd cb 3c 7e 0a 02 3c
       -0.0824852 0.013552069 0.024878427 0.007937072
000070 c3 36 ba bd 0e 87 e1 3c 89 b0 d3 3c 9a 6c 7c 3c
       -0.09092476 0.02753022 0.025841014 0.015406752

functional_2_1/dense_5_1/BiasAdd/ReadVariableOp:0 f4 [4]
000000 62 0a d9 3c 89 f2 e9 3b 4e ba 2b 3c 0c 3b b3 3b
       0.026494209 0.007139508 0.01048143 0.0054696854

functional_2_1/dense_4_1/Cast/ReadVariableOp:0 f4 [15, 8]
000000 c2 1b c3 ba fc a0 2b 39 02 33 bb ba 12 e6 21 3c
       -0.0014885592 0.00016367802 -0.0014282169 0.009881513
000010 f0 54 74 3b 58 8e 9f ba 4c 2b 88 3a 43 d4 3c bb
       0.0037282072 -0.0012173159 0.001038888 -0.0028813041
000020 33 1d c3 ba ce 4d 25 39 07 32 bb ba e6 e5 21 3c
       -0.0014886021 0.0001576461 -0.0014281877 0.009881472
000030 8c 54 74 3b 60 93 9f ba af 2c 88 3a 29 d6 3c bb
       0.003728184 -0.0012174658 0.0010389293 -0.0028814173
000040 7e 18 c3 ba 94 56 2b 39 c8 33 bb ba b3 e5 21 3c
       -0.0014884619 0.00016340084 -0.00142824 0.009881425
000050 98 54 74 3b bc 91 9f ba 22 2a 88 3a b0 d5 3c bb
       0.0037281867 -0.001217417 0.0010388533 -0.002881389
000060 0d 13 c3 ba 3c 41 15 39 17 2a bb ba 03 e6 21 3c
       -0.0014882997 0.00014234049 -0.0014279512 0.009881499
000070 b4 54 74 3b ee 90 9f ba 15 29 88 3a db d5 3c bb
       0.0037281932 -0.001217393 0.001038822 -0.0028813991
000080 fe 0c c3 ba 44 5f 2b 39 be 33 bb ba 0f e6 21 3c
       -0.0014881191 0.0001634332 -0.0014282388 0.00988151
000090 b3 54 74 3b e5 91 9f ba 34 2a 88 3a 74 d6 3c bb
       0.003728193 -0.0012174217 0.0010388554 -0.0028814347
0000a0 a5 50 06 3d 97 65 c6 39 05 61 f8 3c 0f 7f 28 bd
       0.032791752 0.00037841193 0.0303197 -0.041136798
0000b0 b8 07 36 bd 41 f6 00 3d d5 bb 00 3d 38 7a 07 3d
       -0.044440955 0.031484846 0.03142913 0.03307554
0000c0 79 50 06 3d ac 3b bf 39 24 5f f8 3c 10 7f 28 bd
       0.03279159 0.00036474818 0.030318804 -0.0411368
0000d0 d9 07 36 bd 16 f6 00 3d 7e bb 00 3d 6e 7a 07 3d
       -0.044441078 0.031484686 0.031428806 0.033075742
0000e0 28 50 06 3d fa ed c7 39 fd 5e f8 3c 11 7f 28 bd
       0.032791287 0.00038133544 0.030318731 -0.041136805
0000f0 b9 07 36 bd 3a f6 00 3d eb bb 00 3d e2 78 07 3d
       -0.04444096 0.03148482 0.031429213 0.033074267
000100 9c 50 06 3d 3e 08 c6 39 4c 5f f8 3c 0c 7f 28 bd
       0.03279172 0.00037771644 0.030318879 -0.041136786
000110 d0 07 36 bd 31 f6 00 3d c9 bb 00 3d 82 7a 07 3d
       -0.044441044 0.031484786 0.031429086 0.033075817
000120 a6 50 06 3d 12 83 bf 39 65 5f f8 3c 6f 7f 28 bd
       0.032791756 0.00036528014 0.030318925 -0.041137155
000130 b2 07 36 bd 31 f6 00 3d f5 bb 00 3d b5 78 07 3d
       -0.044440933 0.031484786 0.03142925 0.0330741
000140 44 aa b2 bc ce 27 9e b9 f2 e9 a8 bc 18 93 8e 3d
       -0.021809705 -0.00030165765 -0.020619366 0.0696165
000150 f9 2d 63 3d 90 96 9e bc dc ff ac bc 40 a0 02 bd
       0.055463765 -0.019358903 -0.021118097 -0.031891108
000160 3b 46 bc bc eb 0a 82 b9 19 06 b9 bc 79 f9 9a 3d
       -0.022982707 -0.00024803667 -0.022585915 0.075671144
000170 9e 39 7c 3d ef 19 ab bc cd 62 bc bc 86 4e 08 bd
       0.061578386 -0.02088639 -0.02299633 -0.03327801
000180 61 cf c2 bc a2 23 89 b9 9c a5 c8 bc d8 7e a6 3d
       -0.023780527 -0.00026157225 -0.024493031 0.08129662
000190 52 a5 89 3d f8 a0 b6 bc 1e 6d cb bc 96 d1 0c bd
       0.067209855 -0.022293553 -0.024832305 -0.034379564
0001a0 b4 0d c8 bc f1 1a c9 b9 99 46 d7 bc e7 28 b1 3d
       -0.024420597 -0.0003835778 -0.02627878 0.0865038
0001b0 92 9a 94 3d b7 92 c1 bc 85 aa d9 bc 9c 39 10 bd
       0.072560444 -0.02362953 -0.026570568 -0.03521119
0001c0 60 0e d4 bc ba 8f 99 b9 70 7c ec bc 78 bf c0 3d
       -0.02588576 -0.0002928952 -0.02886793 0.0941152
0001d0 18 ab a4 3d 21 32 d3 bc 62 12 ef bc 0f b6 17 bd
       0.08040446 -0.02578074 -0.02918357 -0.03703886

functional_2_1/dense_4_1/BiasAdd/ReadVariableOp:0 f4 [8]
000000 e4 08 ad 3c 02 d0 69 bc b7 74 a1 3c 71 5c 67 bc
       0.021122403 -0.014270784 0.019708974 -0.014121161
000010 1a 91 74 bc ac 8c e6 3c aa 33 a7 3c 1e 26 82 3c
       -0.014927173 0.02814325 0.020410378 0.015887316
