Tonly.onnx (onnx, 2094 bytes, 5 tensors)

functional_1/output_1/Cast/ReadVariableOp:0 f4 [4, 1]
00000000: f8eb 9340 5bb4 9f40 ba81 d940 f448 cf40
4.622555 4.990766 6.797086 6.4776554

functional_1/dense_1_2/Cast/ReadVariableOp:0 f4 [8, 4]
00000000: 46f5 b6bc a4e6 e1bc 0a7e cdbc d83b e9bc
00000010: 7492 d5bc 51a2 d8bc b014 ccbc 4652 e1bc
00000020: 23b7 bcbc 7f2d adbc e878 a7bc e723 d4bc
00000030: 7d0f 3a3d c8dd 5e3d 949f 523d 7303 5f3d
00000040: ad34 c1bc 04de dbbc bb7e bbbc 3430 c7bc
00000050: f1e1 d5bc d1a9 ebbc 6040 c5bc 7b8f e7bc
00000060: 7c0c 473d 122b 663d ecff 533d 3fc4 563d
00000070: f9f0 c9bc 625a d3bc b13d b5bc 1a7e e0bc
-0.022333752 -0.027575798 -0.025084514 -0.028470919 -0.02607081 -0.026444586 -0.024912208 -0.027505051
-0.023036545 -0.021139858 -0.020443395 -0.025896026 0.045424927 0.054410726 0.051421717 0.05444665
-0.023584688 -0.026839264 -0.022887578 -0.024314977 -0.026108714 -0.028767498 -0.024078548 -0.028266659
0.04859589 0.05619342 0.051757738 0.05243325 -0.024651038 -0.025799934 -0.022124143 -0.02740388

functional_1/dense_1_2/BiasAdd/ReadVariableOp:0 f4 [4]
00000000: 28d9 863b acd1 d73b e883 dd3b 17ed cd3b
0.0041152425 0.006586274 0.006760109 0.006284367

functional_1/dense_1/Cast/ReadVariableOp:0 f4 [15, 8]
00000000: eaed a63a 8451 bb39 e4ad cbba 7323 fb3a
00000010: 827d 0cba dc37 1ab9 c484 7a3b 9365 2339
00000020: eaed a63a 8451 bb39 e4ad cbba 7323 fb3a
00000030: 827d 0cba dc37 1ab9 c484 7a3b 9365 2339
00000040: eaed a63a 8451 bb39 e4ad cbba 7323 fb3a
00000050: 827d 0cba dc37 1ab9 c484 7a3b 9365 2339
00000060: eaed a63a 8451 bb39 e4ad cbba 7323 fb3a
00000070: 827d 0cba dc37 1ab9 c484 7a3b 9365 2339
00000080: eaed a63a 8451 bb39 e4ad cbba 7323 fb3a
00000090: 827d 0cba dc37 1ab9 c484 7a3b 9365 2339
000000a0: 37ed b03c ec01 b63c 280d a03c 1c3f efbc
000000b0: 3eb0 b23c b6e8 b23c 21b9 f0bc 7d21 ac3c
000000c0: 37ed b03c ec01 b63c 280d a03c 1c3f efbc
000000d0: 3eb0 b23c b6e8 b23c 21b9 f0bc 7d21 ac3c
000000e0: 37ed b03c ec01 b63c 280d a03c 1c3f efbc
000000f0: 3eb0 b23c b6e8 b23c 21b9 f0bc 7d21 ac3c
00000100: 37ed b03c ec01 b63c 280d a03c 1c3f efbc
00000110: 3eb0 b23c b6e8 b23c 21b9 f0bc 7d21 ac3c
00000120: 37ed b03c ec01 b63c 280d a03c 1c3f efbc
00000130: 3eb0 b23c b6e8 b23c 21b9 f0bc 7d21 ac3c
00000140: 6c20 2bbc b4cd 1abc 4e7d 59bc c496 fe3c
00000150: bd61 00bc 54b5 2bbc 7a48 0a3d 1af6 2cbc
00000160: 9880 38bc 0dc0 2bbc 5f85 6abc fc79 0d3d
00000170: b6bd 12bc 8b76 3bbc 93d8 173d 153b 3cbc
00000180: e4e5 41bc fda7 3bbc 10fa 78bc 83cf 1a3d
00000190: a0f3 21bc 0292 47bc e646 243d 383a 48bc
000001a0: 8798 48bc 075c 48bc a56f 82bc 7a7c 263d
000001b0: 6ac5 2dbc 9f34 50bc beb4 2e3d be20 51bc
000001c0: 10e4 4ebc 0ba9 53bc d6b0 87bc bda7 313d
000001d0: 7233 37bc 209b 57bc 91b4 373d 6e32 59bc
0.0012735699 0.00035728153 -0.0015539494 0.0019160345 -0.00053592783 -0.00014707394 0.0038226107 0.0001558273
0.0012735699 0.00035728153 -0.0015539494 0.0019160345 -0.00053592783 -0.00014707394 0.0038226107 0.0001558273
0.0012735699 0.00035728153 -0.0015539494 0.0019160345 -0.00053592783 -0.00014707394 0.0038226107 0.0001558273
0.0012735699 0.00035728153 -0.0015539494 0.0019160345 -0.00053592783 -0.00014707394 0.0038226107 0.0001558273
0.0012735699 0.00035728153 -0.0015539494 0.0019160345 -0.00053592783 -0.00014707394 0.0038226107 0.0001558273
0.021597488 0.022217713 0.019537523 -0.029204898 0.021812554 0.02183948 -0.029385151 0.021012062
0.021597488 0.022217713 0.019537523 -0.029204898 0.021812554 0.02183948 -0.029385151 0.021012062
0.021597488 0.022217713 0.019537523 -0.029204898 0.021812554 0.02183948 -0.029385151 0.021012062
0.021597488 0.022217713 0.019537523 -0.029204898 0.021812554 0.02183948 -0.029385151 0.021012062
0.021597488 0.022217713 0.019537523 -0.029204898 0.021812554 0.02183948 -0.029385151 0.021012062
-0.010444742 -0.0094484575 -0.013274504 0.03107775 -0.007835803 -0.010480244 0.033760525 -0.010556722
-0.011261128 -0.0104828 -0.014314025 0.03454016 -0.008956363 -0.011441837 0.037071776 -0.011488696
-0.011834595 -0.011453626 -0.015196338 0.037795555 -0.009884745 -0.012180807 0.040106677 -0.012220912
-0.012243397 -0.012228972 -0.015922377 0.040646054 -0.010606149 -0.012707858 0.042652838 -0.012764154
-0.0126276165 -0.012918721 -0.016563814 0.04337286 -0.011181699 -0.013159543 0.044849936 -0.013256652

functional_1/dense_1/BiasAdd/ReadVariableOp:0 f4 [8]
00000000: e294 8e3a 270e a83b 773f 243b 7c55 2ebb
00000010: 371a d03b 4a10 873b 703b 36bc b37a 5d3b
0.0010878111 0.00512864 0.0025062242 -0.0026601246 0.0063507813 0.004121815 -0.011122569 0.0033795058
