nnmpc/my_model.onnx (onnx, 2739 bytes, 6 tensors)

sequential_6/dense_17/MatMul/ReadVariableOp:0 f4 [5, 2]
-0.13032117 4.4064593 -0.713516 2.2414498 1.0438884 -2.403169 0.7934769 -2.5367107
-0.5965107 2.5126965
00000000: ea72 05be b701 8d40 fca8 36bf ea73 0f40
00000010: 239e 853f 85cd 19c0 4d21 4b3f 7859 22c0
00000020: edb4 18bf 05d0 2040

sequential_6/dense_17/BiasAdd/ReadVariableOp:0 f4 [2]
0.93181163 0.13314871
00000000: 358b 6e3f 2358 083e

sequential_6/dense_16/MatMul/ReadVariableOp:0 f4 [10, 5]
0.00093926076 0.00020464833 -0.0009893614 -0.00019526007 -0.00013041176 -0.036074497 -0.044098172 0.014997042
0.013011948 -0.041374985 -0.02989584 -0.04001863 0.01606044 0.014141921 -0.04004171 0.06743943
0.050256163 -0.029786764 -0.032610774 0.056061316 0.07611796 0.05053966 -0.027525466 -0.030196903
0.058748823 -0.03683203 -0.038498864 0.010034919 0.0077443765 -0.035674706 -0.031946886 -0.041067906
0.019089213 0.011003087 -0.03847495 -0.03440422 -0.04310867 0.017223306 0.014451813 -0.040444806
0.08021017 0.047043644 -0.023895659 -0.029967379 0.055591557 -0.029495072 -0.038789053 0.019458951
0.013767171 -0.03746835
00000000: b938 763a de96 5639 76ad 81ba babe 4cb9
00000010: 24bf 08b9 dac2 13bd 49a0 34bd 27b6 753c
00000020: 1130 553c d178 29bd 1fe8 f4bc 93ea 23bd
00000030: 2f91 833c 84b3 673c c702 24bd af1d 8a3d
00000040: 68d9 4d3d 5f03 f4bc e092 05bd 8da0 653d
00000050: bce3 9b3d ad02 4f3d 167d e1bc 7f5f f7bc
00000060: 9ba2 703d 2fdd 16bd fcb0 1dbd 8069 243c
00000070: 8ac4 fd3b a41f 12bd bdda 02bd d236 28bd
00000080: fb60 9c3c 4b46 343c e997 1dbd 70eb 0cbd
00000090: b792 30bd e417 8d3c 4cc7 6c3c 74a9 25bd
000000a0: 3b45 a43d d6b0 403d d4c0 c3bc 267e f5bc
000000b0: f9b3 633d a69f f1bc 45e1 1ebd 6168 9f3c
000000c0: b38f 613c 6a78 19bd

sequential_6/dense_16/BiasAdd/ReadVariableOp:0 f4 [5]
0.012537148 0.01896305 0.0025135267 0.0031962378 0.017253138
00000000: 9c68 4d3c 6658 9b3c fbb9 243b f977 513b
00000010: 7456 8d3c

sequential_6/dense_15/MatMul/ReadVariableOp:0 f4 [20, 10]
0.00026246454 0.0029682983 0.0027990567 0.0073726117 0.008656225 -0.0012852633 0.006471764 0.005577045
0.008103546 0.0057816044 0.0002674787 0.0029683146 0.0027990623 0.007372611 0.008656225 -0.0012852104
0.0064717727 0.0055770427 0.008103547 0.0057816044 0.00026761676 0.0029682973 0.0027990562 0.007372609
0.008656226 -0.0012850142 0.006471779 0.0055770427 0.008103546 0.005781608 0.0002680171 0.0029683379
0.0027990625 0.007372613 0.008656225 -0.0012848683 0.006471777 0.005577047 0.00810355 0.005781639
0.00026627415 0.0029682969 0.0027990555 0.007372611 0.008656225 -0.0012851808 0.006471773 0.0055770413
0.008103546 0.005781604 -0.00020634409 0.025542492 0.02300524 -0.027592536 -0.027001828 0.020610474
0.023638409 0.023583375 -0.029634072 0.02091904 -0.0002038556 0.025542494 0.023005227 -0.027592536
-0.027001824 0.020610457 0.02363841 0.023583362 -0.029634075 0.020919032 -0.00019818023 0.025542486
0.023005228 -0.027592538 -0.027001828 0.02061047 0.023638418 0.023583379 -0.029634073 0.02091906
-0.00020694389 0.025542494 0.023005227 -0.027592534 -0.027001826 0.020610644 0.023638405 0.023583379
-0.029634073 0.020919044 -0.00020714817 0.025542494 0.023005227 -0.027592534 -0.027001824 0.02061046
0.02363841 0.023583379 -0.02963407 0.02091903 0.00022020674 0.00793994 0.0071873697 -0.0040580174
-0.008749282 0.0050827675 0.008321071 0.008753137 -0.0064798263 0.0053064404 0.00022247994 0.008143356
0.0074466863 -0.004571235 -0.009271313 0.0052532684 0.008564534 0.009035299 -0.0069952495 0.0055708583
0.00022322718 0.008464925 0.007748894 -0.005334771 -0.0099412445 0.005480264 0.008865771 0.009371232
-0.0076969517 0.0058669904 0.00021380102 0.008828381 0.008039375 -0.006147643 -0.01071721 0.0056442176
0.009207478 0.0097103575 -0.00846281 0.006135137 0.00021146351 0.009233436 0.008345095 -0.00688724
-0.01148401 0.00585806 0.009578113 0.010059636 -0.009163124 0.0064320965 0.0006000109 -0.020679912
-0.020715289 0.03781339 0.039199688 -0.022555925 -0.016066484 -0.020602651 0.038047023 -0.020724785
0.0006410302 -0.022534143 -0.022094944 0.040780865 0.042248115 -0.024083333 -0.01779359 -0.02172945
0.041282646 -0.021901237 0.0007024801 -0.024071781 -0.02310331 0.043365918 0.04493469 -0.025106657
-0.019101651 -0.022335455 0.044035427 -0.022749752 0.00067552784 -0.025247734 -0.02373303 0.045553334
0.047339756 -0.02566946 -0.019841718 -0.022311615 0.0464082 -0.023145821 0.0007410046 -0.026415613
-0.024737805 0.048964646 0.050581068 -0.026245343 -0.020681476 -0.02235731 0.049773056 -0.023761204
00000000: 659b 8939 c887 423b 6170 373b f395 f13b
00000010: d7d2 0d3c 4876 a8ba 1711 d43b a5bf b63b
00000020: bcc4 043c 9d73 bd3b 623c 8c39 0e88 423b
00000030: 7970 373b f295 f13b d7d2 0d3c 8174 a8ba
00000040: 2a11 d43b a0bf b63b bdc4 043c 9d73 bd3b
00000050: ea4e 8c39 c487 423b 5f70 373b ed95 f13b
00000060: d8d2 0d3c ec6d a8ba 3811 d43b a0bf b63b
00000070: bcc4 043c a573 bd3b a584 8c39 7288 423b
00000080: 7a70 373b f695 f13b d7d2 0d3c 0769 a8ba
00000090: 3311 d43b a9bf b63b c1c4 043c e773 bd3b
000000a0: b69a 8b39 c287 423b 5c70 373b f295 f13b
000000b0: d7d2 0d3c 8373 a8ba 2b11 d43b 9dbf b63b
000000c0: bcc4 043c 9c73 bd3b 125e 58b9 7d3e d13c
000000d0: 7c75 bc3c be09 e2bc f032 ddbc 4cd7 a83c
000000e0: 56a5 c13c ec31 c13c 27c3 f2bc 685e ab3c
000000f0: 12c2 55b9 7e3e d13c 7575 bc3c be09 e2bc
00000100: ee32 ddbc 43d7 a83c 57a5 c13c e531 c13c
00000110: 29c3 f2bc 645e ab3c 9ace 4fb9 7a3e d13c
00000120: 7675 bc3c bf09 e2bc f032 ddbc 4ad7 a83c
00000130: 5ba5 c13c ee31 c13c 28c3 f2bc 735e ab3c
00000140: 14ff 58b9 7e3e d13c 7575 bc3c bd09 e2bc
00000150: ef32 ddbc a7d7 a83c 54a5 c13c ee31 c13c
00000160: 28c3 f2bc 6a5e ab3c ea35 59b9 7e3e d13c
00000170: 7575 bc3c bd09 e2bc ee32 ddbc 44d7 a83c
00000180: 57a5 c13c ee31 c13c 26c3 f2bc 635e ab3c
00000190: 4ce7 6639 8616 023c 0784 eb3b 1ef9 84bb
000001a0: 2659 0fbc 588d a63b 1a55 083c 5169 0f3c
000001b0: b954 d4bb a6e1 ad3b 8149 6939 b66b 053c
000001c0: 5503 f43b 4cca 95bb b5e6 17bc 9c23 ac3b
000001d0: 4252 0c3c ca08 143c 6838 e5bb bf8b b63b
000001e0: 1712 6a39 78b0 0a3c 6fea fd3b 4dcf aebb
000001f0: 9ae0 22bc c993 b33b bd41 113c cc89 193c
00000200: b636 fcbb e23f c03b c62f 6039 eaa4 103c
00000210: 95b7 033c 2b72 c9bb 3d97 2fbc 21f3 b83b
00000220: f6da 163c 3118 1f3c 99a7 0abc 4209 c93b
00000230: 4ebc 5d39 d647 173c deb9 083c 5bae e1bb
00000240: 6e27 3cbc f8f4 bf3b 85ed 1c3c 2cd1 243c
00000250: ed20 16bc 56c4 d23b 0d4a 1d3a eb68 a9bc
00000260: 1cb3 a9bc 37e2 1a3d da8f 203d 34c7 b8bc
00000270: dc9d 83bc e4c6 a8bc 32d7 1b3d 06c7 a9bc
00000280: cf0a 283a 8699 b8bc 7500 b5bc d609 273d
00000290: 5c0c 2d3d 694a c5bc ddc3 91bc f601 b2bc
000002a0: fe17 293d 396a b3bc a426 383a 2f32 c5bc
000002b0: 2743 bdbc 76a0 313d 700d 383d 7aac cdbc
000002c0: 117b 9cbc d8f8 b6bc 7e5e 343d b05d babc
000002d0: e815 313a 56d4 cebc c56b c2bc 2296 3a3d
000002e0: 55e7 413d c248 d2bc 198b a2bc d9c6 b6bc
000002f0: 8616 3e3d 4e9c bdbc fa3f 423a 8e65 d8bc
00000300: f0a6 cabc 278f 483d 182e 4f3d 7900 d7bc
00000310: 336c a9bc ad26 b7bc d5de 4b3d dba6 c2bc

sequential_6/dense_15/BiasAdd/ReadVariableOp:0 f4 [10]
-0.014255511 -0.030488707 -0.031721037 0.024768822 0.03101198 -0.010495508 -0.021080133 -0.027336767
0.019484907 -0.028126778
00000000: f28f 69bc 74c3 f9bc ebed 01bd fce7 ca3c
00000010: d60c fe3c 5af5 2bbc 3eb0 acbc 5bf1 dfbc
00000020: d09e 9f3c 216a e6bc
